models/keypoint_classifier.tflite (tflite, 6588 bytes, 6 tensors)

sequential/dense/BiasAdd/ReadVariableOp f4 [20]
000000 a3 4f 61 bf 1d 1b 33 be 4c 64 17 bf 1f c7 08 bf
       -0.8801214 -0.17490812 -0.59137416 -0.53428835
000010 c4 0b 32 bf 83 fd af be 0c 89 f1 be ea ac c7 be
       -0.695492 -0.34373102 -0.4717487 -0.3899911
000020 17 e6 4b bf f3 bb 2a bf f7 6c 89 bf 2f 5f 65 bf
       -0.79647964 -0.6669304 -1.0736378 -0.89598364
000030 02 1d d7 be d4 ff 07 be c1 c3 5f bf d7 cc 38 bf
       -0.4201432 -0.13281184 -0.8740807 -0.7218756
000040 3b b5 0a bf 05 85 b1 be 86 18 85 bf 21 ad 89 bd
       -0.54182786 -0.34671798 -1.0398109 -0.06722475

sequential/dense_2/BiasAdd/ReadVariableOp f4 [5]
000000 20 c6 2d be 88 88 e3 bd e2 2e 00 3f c8 7c be be
       -0.1697011 -0.11110026 0.5007154 -0.37204576
000010 d6 b2 b9 3d
       0.090673134

sequential/dense_1/BiasAdd/ReadVariableOp f4 [10]
000000 02 51 12 3f 10 72 23 bd 64 7e 2c 3f 23 ba f3 3e
       0.5715486 -0.0399037 0.67380357 0.4760295
000010 32 d6 88 be 29 70 56 3d 8b 8c 19 3f 75 51 50 3f
       -0.26725918 0.052353058 0.59980077 0.81374294
000020 c4 a7 36 be ad 2f 4f be
       -0.17837435 -0.2023303

sequential/dense/MatMul f4 [20, 42]
000000 74 fe e5 bd 74 5e 45 3e 4a 95 75 3f bf 32 95 bf
       -0.11230174 0.19274312 0.9593092 -1.1656111
000010 60 dd 3c 3f 72 d3 29 bf 1b f2 fb 3e ae 73 0a bf
       0.7377529 -0.66338265 0.4920815 -0.54082763
000020 30 92 0d 3f 6f bf af bc 43 89 cf 3e c8 b8 d1 be
       0.5530119 -0.021453587 0.4053441 -0.4096129
000030 56 f3 a2 3c b8 22 41 be cb 20 92 be a5 a5 aa 3d
       0.019891422 -0.188609 -0.28540644 0.083323754
000040 0c 7d bd be ff 51 70 3c 08 b3 e0 3e a8 d5 8b be
       -0.37009466 0.014667987 0.4388659 -0.27311444
000050 c1 d6 bc 3d e4 7d 0a be d5 7e 4b 3d e2 1b db bd
       0.092206486 -0.13524586 0.049681503 -0.106986776
000060 10 e3 39 3d cf c1 bf bd 87 a1 dc 3e 1a ec 35 be
       0.04538256 -0.09363138 0.43091986 -0.17765847
000070 a0 8f ea 3d 1f 2e 0d be 31 24 2b bd b3 44 a2 3c
       0.114531755 -0.13787125 -0.04178256 0.019808149
000080 2b 41 3b be c2 26 65 bd 69 23 32 3e c8 b2 29 be
       -0.18286578 -0.055945165 0.1739632 -0.16572106
000090 d1 49 60 3e 66 9c 57 bc bd ef 2c be a5 dd f7 3d
       0.21903159 -0.013159847 -0.16888328 0.12102822
0000a0 67 41 d9 bd 21 f0 d1 3d b0 5c 18 3d ee 98 83 bd
       -0.10608178 0.10250879 0.03719777 -0.064256534
0000b0 c3 fd 11 3d eb e3 27 3e d1 43 5a bb e9 c1 f2 bd
       0.035642397 0.16395538 -0.0033304582 -0.11853392
0000c0 f7 4e e3 bc 4c eb 49 be 94 09 a2 bd 97 70 ae be
       -0.027747614 -0.19718665 -0.07911983 -0.34070274
0000d0 a9 99 0e be a5 64 47 3e 90 a2 f3 bd 43 47 c8 bd
       -0.13925804 0.19471987 -0.11896241 -0.09779217
0000e0 9a d7 26 be ee d0 47 be 78 37 91 be bd 19 37 be
       -0.16293183 -0.19513294 -0.28362632 -0.17880912
0000f0 33 63 56 be d4 70 e2 3d e8 0e a5 bd 65 de 3e be
       -0.20936279 0.110566765 -0.08059484 -0.18639524
000100 39 c3 b4 3d 67 51 55 3e 2f a5 5d 3e 33 fe 38 3f
       0.08826298 0.20831834 0.21645044 0.7226288
000110 bd 6e 8b be b4 71 34 bd 9e 61 a8 bd e7 6e 10 be
       -0.27232924 -0.04405375 -0.08221744 -0.14104806
000120 dd 65 97 3e 33 e3 e3 3e 22 c7 16 3f fb 9f 84 3f
       0.29569903 0.44509277 0.588976 1.0361322
000130 4a 0e 80 be b2 4a 4b be 9b 12 08 be f8 e1 53 bd
       -0.25010902 -0.19852713 -0.13288347 -0.051729172
000140 3b 26 bc bb 84 7e db 3e 7d e1 ec 3e 95 97 62 3f
       -0.005741862 0.4286996 0.46265784 0.88512546
000150 3c e1 84 3e 0d 22 84 be 9c 64 f0 3e f7 19 58 3f
       0.2595309 -0.2580723 0.4695176 0.8441462
000160 8b 5f e8 3e 95 80 93 3e 93 bd 00 3f e6 d3 02 3e
       0.45385394 0.28809038 0.5028927 0.12776145
000170 dd fe 27 3f 9c c4 77 3d 9b f2 30 be 24 d3 d5 3d
       0.65623266 0.060490236 -0.17280047 0.104406625
000180 de 0f be 3c a9 06 98 3d 7a 11 a3 3d d4 2e 7b bd
       0.023200925 0.07423145 0.07962318 -0.061323956
000190 96 84 c6 3d 0b 62 45 be 2b fb 40 bd d7 7f 6e bd
       0.096932575 -0.19275682 -0.047114532 -0.058227386
0001a0 5f 92 ba bd 0c 9f e7 3c 4e 61 4f be 83 6b 91 bd
       -0.09109949 0.028274082 -0.20251963 -0.07100584
0001b0 41 90 bb be 66 d1 75 bd f8 97 4d 3e 9b 9a be bd
       -0.36633494 -0.06001415 0.20077503 -0.093068324
0001c0 22 51 48 be db 3b 63 3d 62 12 0b bf 99 81 e2 3c
       -0.195622 0.055477004 -0.54324925 0.027649688
0001d0 8c d7 4e bf 2c 7d 69 3c c6 8e de 3e 30 26 55 bd
       -0.8079765 0.014251035 0.43468302 -0.05203837
0001e0 e7 c9 cd bd 71 4a b3 3d 3f d2 15 bf a0 5e a2 bb
       -0.100482754 0.08754433 -0.58523935 -0.004955128
0001f0 cb 2f 64 bf c3 18 70 3d 7c 13 63 3e f4 5f 77 3e
       -0.89135426 0.058617365 0.22175401 0.24157697
000200 46 bd d3 3d 53 a6 0f 3f 59 3f 8d 3d a8 26 ab 3e
       0.103388354 0.56113166 0.06896848 0.3342793
000210 fa 8c 30 3e dc da 85 3e c0 6d 9c 3e 3d 3c 5f 3e
       0.17241278 0.2614354 0.30552483 0.21800323
000220 0a 3b 04 bd c2 6d 60 3d c2 e8 87 bd d8 cd 6b 3d
       -0.032282867 0.054792173 -0.06636192 0.057569355
000230 c8 b1 3f bd 62 8a 5b 3d 00 f1 ab 3c f6 90 6e bc
       -0.046800405 0.05359877 0.020988941 -0.014560929
000240 2d 1e 97 3d c6 73 70 3d ae 73 45 bd e4 a6 5b 3d
       0.073788024 0.05870416 -0.048206024 0.053625956
000250 3d 6b 90 be 44 db 4d be 05 e7 f4 be 79 36 ec be
       -0.28206816 -0.20103174 -0.47832504 -0.4613531
000260 62 9d 6d 3e 48 90 2a 3d 21 2a d9 3b 74 24 b4 3b
       0.23204568 0.041641504 0.0066273366 0.0054975096
000270 9e 50 7d be 44 b9 02 bf e6 71 04 bf bf 4b 1e bf
       -0.24737784 -0.5106394 -0.51736295 -0.6183433
000280 7f b6 a3 3e 18 81 18 3e df a1 b7 3d 27 0f 7e 3d
       0.3197517 0.14892995 0.08966421 0.06202617
000290 d8 63 0c be 6c 0a 62 bd f3 5a 99 be e1 ef c6 be
       -0.13709962 -0.05518572 -0.299522 -0.38854888
0002a0 30 58 69 3d 6f 1a 17 be 50 6c d7 bd 91 be 4c 3e
       0.056968868 -0.14756177 -0.10518706 0.1999457
0002b0 d7 e9 03 bb 15 ee 05 3e 68 6e e8 3d 8b e8 00 3e
       -0.0020128393 0.13079102 0.11349183 0.12588708
0002c0 6b 72 88 3e 15 3c a2 bc 63 19 b3 bd 29 70 da be
       0.26649794 -0.01980404 -0.087450765 -0.42663696
0002d0 91 a2 8d bb db cf 54 be c7 cf a3 3c 7a 5a 14 bd
       -0.004322358 -0.20782416 0.019996537 -0.036219098
0002e0 fa f1 89 3c 71 b4 58 3b c3 cb a1 3e 6c dc be be
       0.016839016 0.0033066536 0.3160077 -0.37277544
0002f0 40 0f ae bd 63 33 a3 3d 24 6d 18 be 05 c6 0e 3e
       -0.084990025 0.079687856 -0.14885384 0.13942726
000300 c0 f8 f7 bd b4 a4 dc 3d a0 1c 17 3f a0 79 10 bf
       -0.12107992 0.10773602 0.59028053 -0.56435585
000310 a8 6f 34 bd f5 a0 83 3d d8 32 3d be 62 a8 ff 3d
       -0.044051796 0.064271845 -0.18476427 0.12483288
000320 19 42 eb bd 53 0f 83 3d 4b e7 6f 3f 95 d0 23 bf
       -0.114872165 0.06399407 0.937123 -0.63990146
000330 e2 7d 80 3e c0 19 03 3e f2 7d 95 bd 26 f9 34 3e
       0.2509604 0.12802792 -0.07299413 0.17673168
000340 e8 9c cc bd db 56 06 3e a0 f3 08 bc 40 6f 28 3c
       -0.09990865 0.1311907 -0.008358866 0.01028043
000350 fc 64 4a 3e f8 ec 80 3e e0 7d 2a be f1 c1 8b bc
       0.19765085 0.25180793 -0.1664958 -0.017060252
000360 50 34 f5 be f8 a1 a1 bd 17 91 2e bf 19 02 25 3c
       -0.47891474 -0.07892221 -0.6819014 0.010071301
000370 a4 46 92 3d de b2 7c 3e 27 64 82 3d 96 62 d6 3d
       0.0714238 0.24677607 0.06366759 0.104680225
000380 32 24 e7 3c 6b 20 ef bc 4d 39 92 bc c3 bb 8e bd
       0.028215501 -0.029190263 -0.017849589 -0.069694065
000390 6b ec a3 bc b8 1c 87 3e 41 ff 84 bc 52 a2 65 3d
       -0.020010194 0.26389098 -0.016234996 0.056063004
0003a0 60 86 6a 3e 53 85 43 be bb ac be 3e df 9b 0b be
       0.22902822 -0.19093828 0.37241158 -0.13633679
0003b0 26 57 c7 bd cf bd 80 3e 63 9b 39 3c cf e3 58 bc
       -0.09733419 0.25144812 0.011328551 -0.013237908
0003c0 9e 9c af 3e 40 bf 82 be 64 e5 22 3f 8b 86 e9 3d
       0.34299177 -0.25536537 0.6363127 0.11402615
0003d0 3c 22 1f be ac 57 98 3e 79 ed 9f bd 83 aa 72 3d
       -0.15540403 0.29754388 -0.07808966 0.059244644
0003e0 06 17 33 3e 73 7d 35 be 52 58 e4 3e fe 8a 5a be
       0.17489251 -0.17723636 0.44598633 -0.21342084
0003f0 ec 4f d7 3d 42 85 ab bd 71 84 84 bd 4e 86 ee 3e
       0.10513291 -0.08375026 -0.06470574 0.4658684

sequential/dense_1/MatMul f4 [10, 20]
000000 74 70 60 3f 39 b1 82 3f e3 a3 0f be 5f 2e 0c be
       0.8767159 1.0210334 -0.14027362 -0.13689564
000010 2b 50 9f 3f 50 60 97 bd 61 ca bf be 78 97 3a be
       1.244634 -0.07391417 -0.3745909 -0.18221843
000020 11 8d 87 3f 80 a6 28 bd 87 62 18 3f d4 17 eb 3e
       1.0589925 -0.04117441 0.5952534 0.45916617
000030 2a 7e bd bd ac 44 9f 3e c4 42 5f 3f 4e 96 8a 3f
       -0.092525795 0.3110708 0.8721125 1.0827119
000040 e5 c0 84 3f 9a 97 2b 3f a2 db dd 3e b3 3c fb 3e
       1.0371367 0.670282 0.4333163 0.49069747
000050 5e bb 53 bf fc 6d b2 3e b3 44 92 3e cc bd 5d 3e
       -0.82707775 0.34849536 0.28568038 0.21654433
000060 84 98 88 3d 5d 5a f3 3e ff e3 cf bd d2 ae cc 3e
       0.06669715 0.4752988 -0.10150909 0.39977127
000070 25 9c 49 3f 36 9a 99 3d 81 d3 57 3f 36 5c 05 3f
       0.7875388 0.075001165 0.84307104 0.5209383
000080 42 2c 8b be 13 d5 07 3f d3 71 35 3f c3 d9 3a bf
       -0.27182204 0.530595 0.70876807 -0.7298853
000090 dd 43 83 bd 4b 00 96 3e 87 02 aa 3c dc 9c 1a 3e
       -0.06409428 0.292971 0.020753158 0.150989
0000a0 5b e1 42 bf d4 46 82 bf 39 23 bb bd 26 6b 08 3f
       -0.76125115 -1.0177865 -0.091375776 0.53288496
0000b0 a3 37 30 3e 0a 39 46 3e cf 71 49 c0 7e b5 81 3e
       0.17208724 0.19357696 -3.1475713 0.2533378
0000c0 38 ff 20 bd 02 1e a5 3e 9b da 02 3e b4 3d b9 bf
       -0.039305896 0.32249457 0.12778704 -1.4471955
0000d0 8f a7 ef 3e f8 4d 69 bf f9 4a 57 bf ab 42 48 be
       0.46807525 -0.91134596 -0.84098774 -0.19556682
0000e0 1f 2b ff 3d 37 64 b5 bf 9e 33 63 3f f4 6a a8 bf
       0.124593966 -1.4171208 0.88750637 -1.315764
0000f0 19 7a 11 3f 8b 4b 25 3f f8 c7 d2 3d e6 bf 6f 3e
       0.5682693 0.64568394 0.10292047 0.23413047
000100 06 5e 4f bf ba bc 2d 3f 21 3d de bd 45 3d e8 3e
       -0.81002843 0.678661 -0.10851503 0.45359245
000110 4b 0a 06 bf 15 6d f9 bd b1 54 f1 be 65 32 01 3f
       -0.52359456 -0.12179009 -0.47134927 0.5046752
000120 85 ba 92 3e d5 71 75 3f 95 5b d0 3e 7f 7b ac be
       0.28657928 0.9587682 0.40694872 -0.3368797
000130 b2 55 dd 3e dc 4a cd 3e 51 47 fe be 3b 4d 8d bd
       0.43229443 0.40096176 -0.49663785 -0.06899496
000140 da 86 0f 3f 69 1d 66 3e 9c fb 4c 3f 46 8d f1 3d
       0.5606514 0.22472157 0.80071425 0.11794524
000150 13 cb 87 bc 9e bc 13 3e 14 06 0e bf 26 e1 9f 3d
       -0.016576326 0.1442742 -0.55478024 0.078066155
000160 e6 9b 2e 3f a9 83 96 3e 0c e4 56 3f d0 fb 13 3f
       0.6820663 0.29397324 0.8394172 0.5780611
000170 36 83 c5 3e a2 f4 04 be 34 76 1e 3f 95 79 35 3f
       0.38576669 -0.12983945 0.61899114 0.70888644
000180 27 2b 1a be 05 f5 8a 3e 18 2a 75 be 80 2d 10 3e
       -0.15055524 0.2714006 -0.23941839 0.14079857
000190 8d 8c aa bc 49 ad 54 bf b3 12 9a 3f 2d ac e0 3e
       -0.020818973 -0.8307691 1.2036957 0.4388136
0001a0 29 d3 11 be a4 4a a3 3c 14 a7 92 3f af 70 49 be
       -0.14240707 0.019933052 1.1457238 -0.19671892
0001b0 11 8b 64 bf ae 58 18 3e 71 b5 c5 be 90 06 82 bf
       -0.892747 0.14877579 -0.3861499 -1.0158253
0001c0 0a d2 a0 3d 39 d7 db be e5 76 3f 3e 8a 12 0d 3f
       0.07852562 -0.4293764 0.18697698 0.55106413
0001d0 bd 7f b9 3f c4 81 c7 3e a3 21 e5 3d 4c 11 08 3f
       1.4492108 0.3896619 0.11188056 0.5315139
0001e0 96 6f 8c 3e 85 31 f5 bc e8 2d e9 be ef 36 63 bf
       0.27428883 -0.02993084 -0.45542836 -0.88755697
0001f0 4f da 0b 3f 52 db fa be 76 10 54 bf 2c d8 1c bf
       0.5462999 -0.48995453 -0.8283762 -0.6126735
000200 09 c9 31 3f d2 e0 e6 be 1b 71 e2 3e bf 57 ca 3d
       0.6944738 -0.450934 0.44226918 0.098800175
000210 89 19 29 bf 49 e6 45 be f4 02 e2 be b1 0d 33 3f
       -0.6605459 -0.19326128 -0.44142878 0.69942766
000220 09 09 82 be 75 f8 3c 3e 89 6b df 3e da 00 99 3e
       -0.25397518 0.18454154 0.4363673 0.29883462
000230 e7 a2 dc bd 93 1a 9e 3e 81 0b 11 3d eb 0b d7 bf
       -0.10773259 0.3087965 0.03541136 -1.6800512
000240 a5 d9 bf 3e 48 a2 3a bf a4 a0 a3 3f b4 ef 9e bf
       0.37470737 -0.7290387 1.2783399 -1.2416902
000250 52 fa c1 bd 05 91 a2 bf d5 17 47 be e1 4d 8f bc
       -0.09471573 -1.2700506 -0.19442685 -0.01749319
000260 74 ba cf bf a5 3d 32 3e c5 1c 5a be 07 01 8f 3e
       -1.6228776 0.17406328 -0.21300037 0.2793047
000270 af 6c 70 bf bd cb 93 3e ea 12 16 bf 23 ca d1 3e
       -0.9391584 0.28866377 -0.5862261 0.4097453
000280 46 8c 38 be 9a dd ef 3e 6c 28 c7 be 53 b4 71 be
       -0.1802226 0.46848756 -0.38898027 -0.23603944
000290 a0 67 bb 3e 1d 52 16 3e 15 36 c5 be 1b 8c d1 3e
       0.36602497 0.14679761 -0.38517824 0.40927204
0002a0 c1 4c f6 be 84 8f 35 bf f4 1f 17 be 29 51 ac bd
       -0.48105434 -0.7092211 -0.14758283 -0.084139176
0002b0 aa cc a9 bf 04 dc 0e be 85 b9 45 3e 44 5d 92 bb
       -1.3265584 -0.13951117 0.19309051 -0.0044666845
0002c0 33 49 39 3f b1 20 7e bd 1d 7c 00 bf 6d c7 b5 3e
       0.7237732 -0.062042896 -0.5018938 0.35503712
0002d0 0b 21 83 3e 30 7b 02 3f 9a 15 f8 3e 97 9d b0 3e
       0.25611147 0.5096922 0.4845398 0.34495232
0002e0 e1 e4 52 bd 86 bc 90 3e d3 d8 2c 3e 3a 04 1d 3d
       -0.051487807 0.28268832 0.16879587 0.03833411
0002f0 4d 2f fd be 74 c2 02 3f 50 8f 09 bf 11 c2 ca 3d
       -0.4945015 0.5107796 -0.537343 0.099002965
000300 fe 19 9c 3e 43 b7 92 be d9 38 00 bf 34 9a 04 bf
       0.3048858 -0.28655443 -0.5008674 -0.51797795
000310 ad e1 24 3f 0e fc 0c 3e f4 a5 61 be c3 6a df bd
       0.64406854 0.13768026 -0.22035962 -0.10909035

sequential/dense_2/MatMul f4 [5, 10]
000000 8c 12 7b 3e f4 60 e4 3e 71 f5 18 bf ec 47 30 3f
       0.24518794 0.4460522 -0.59749514 0.68859744
000010 5b 89 b3 3e 4b 89 46 3e 86 5c 71 bf e0 67 0b be
       0.3506573 0.1938831 -0.94281805 -0.13613844
000020 67 36 95 3f b8 e7 44 3f 1f 7f 8b 3f b7 f8 4b 3f
       1.1657227 0.76916075 1.0898169 0.79676384
000030 1d a9 56 be 8d c9 2a bf 82 4b 5e 3f 39 f8 ed 3d
       -0.20962949 -0.6671379 0.86833966 0.1161961
000040 c2 48 2a 3f 3d 17 5c bf 11 f7 4b bf 02 60 23 bf
       0.6651727 -0.8597296 -0.7967387 -0.6381837
000050 97 79 07 3f ed e4 60 bf c6 e3 9f bf 03 8a b9 bb
       0.52919906 -0.87849313 -1.2491386 -0.005662204
000060 e4 66 da be ae 5e 55 bf 09 94 38 3f 4f ca b3 3f
       -0.42656624 -0.83347595 0.72100884 1.4046115
000070 eb 09 89 3d 99 58 2a bf 86 de 8d bf 51 2a 96 3e
       0.06691345 -0.6654144 -1.1083534 0.2932916
000080 b3 52 b9 3f 4a 3d 15 bf 18 91 56 bf b1 45 84 bf
       1.4478363 -0.58296645 -0.83815145 -1.0333768
000090 c4 cb d3 bd 64 7d b1 bf 07 19 47 3f a6 50 fe 3e
       -0.103415996 -1.3866391 0.77772564 0.49670905
0000a0 db c1 ee be fc 1e b3 bf 6e 52 42 3e d6 7a 0b c0
       -0.46632275 -1.3993831 0.18976757 -2.1793723
0000b0 ed 6b 14 bf cd d2 8a 3f 5a 9d 18 bf d1 c0 5b be
       -0.5797718 1.0845581 -0.596151 -0.21460272
0000c0 85 23 06 3e 4d 78 9b 3d
       0.13099487 0.07591305
